…
2026-04-30 13:27:27,906 | INFO | config: {'emb_size': 384, 'head_size': 8, 'n_layer': 6, 'sequence_len': 128, 'learning_rate': 0.0003, 'eval_iters': 3, 'batch_size': 100, 'dropout': 0.4, 'seed': 12046, 'dataset_path': './my_novel_dataset', 'tokenizer_path': './my_novel_tokenizer', 'test_size': 0.1, 'split_seed': 1024, 'weight_decay': 0.0, 'label_smoothing': 0.0, 'grad_clip': 0.0, 'input_corrupt_prob': 0.0, 'sample_stride': 1, 'prefix_trunc_prob': 0.0, 'min_prefix_len': 0, 'lr_scheduler': 'none', 'lr_cosine_t_max_epochs': 0, 'lr_cosine_eta_min': 1e-06}
2026-04-30 13:27:27,906 | INFO | run_dir: my_model/train_1_1
2026-04-30 13:27:29,520 | INFO | model:
CharGPT(
  (token_emb): Embedding(8001, 384)
  (pos_emb): Embedding(128, 384)
  (blocks): Sequential(
    (0): Block(
      (l1): LayerNorm((384,), eps=1e-05, elementwise_affine=True)
      (mha): MaskedMultiHeadAttention(
        (heads): ModuleList(
          (0-47): 48 x MaskedAttention(
            (key): Linear(in_features=384, out_features=8, bias=False)
            (query): Linear(in_features=384, out_features=8, bias=False)
            (value): Linear(in_features=384, out_features=8, bias=False)
            (dp): Dropout(p=0.4, inplace=False)
          )
        )
        (proj): Linear(in_features=384, out_features=384, bias=True)
        (dp): Dropout(p=0.4, inplace=False)
      )
      (l2): LayerNorm((384,), eps=1e-05, elementwise_affine=True)
      (ff): FeedForward(
        (ln1): Linear(in_features=384, out_features=1536, bias=True)
        (ln2): Linear(in_features=1536, out_features=384, bias=True)
        (dp): Dropout(p=0.4, inplace=False)
      )
    )
    (1): Block(
      (l1): LayerNorm((384,), eps=1e-05, elementwise_affine=True)
      (mha): MaskedMultiHeadAttention(
        (heads): ModuleList(
          (0-47): 48 x MaskedAttention(
            (key): Linear(in_features=384, out_features=8, bias=False)
            (query): Linear(in_features=384, out_features=8, bias=False)
            (value): Linear(in_features=384, out_features=8, bias=False)
            (dp): Dropout(p=0.4, inplace=False)
          )
        )
        (proj): Linear(in_features=384, out_features=384, bias=True)
        (dp): Dropout(p=0.4, inplace=False)
      )
      (l2): LayerNorm((384,), eps=1e-05, elementwise_affine=True)
      (ff): FeedForward(
        (ln1): Linear(in_features=384, out_features=1536, bias=True)
        (ln2): Linear(in_features=1536, out_features=384, bias=True)
        (dp): Dropout(p=0.4, inplace=False)
      )
    )
    (2): Block(
      (l1): LayerNorm((384,), eps=1e-05, elementwise_affine=True)
      (mha): MaskedMultiHeadAttention(
        (heads): ModuleList(
          (0-47): 48 x MaskedAttention(
            (key): Linear(in_features=384, out_features=8, bias=False)
            (query): Linear(in_features=384, out_features=8, bias=False)
            (value): Linear(in_features=384, out_features=8, bias=False)
            (dp): Dropout(p=0.4, inplace=False)
          )
        )
        (proj): Linear(in_features=384, out_features=384, bias=True)
        (dp): Dropout(p=0.4, inplace=False)
      )
      (l2): LayerNorm((384,), eps=1e-05, elementwise_affine=True)
      (ff): FeedForward(
        (ln1): Linear(in_features=384, out_features=1536, bias=True)
        (ln2): Linear(in_features=1536, out_features=384, bias=True)
        (dp): Dropout(p=0.4, inplace=False)
      )
    )
    (3): Block(
      (l1): LayerNorm((384,), eps=1e-05, elementwise_affine=True)
      (mha): MaskedMultiHeadAttention(
        (heads): ModuleList(
          (0-47): 48 x MaskedAttention(
            (key): Linear(in_features=384, out_features=8, bias=False)
            (query): Linear(in_features=384, out_features=8, bias=False)
            (value): Linear(in_features=384, out_features=8, bias=False)
            (dp): Dropout(p=0.4, inplace=False)
          )
        )
        (proj): Linear(in_features=384, out_features=384, bias=True)
        (dp): Dropout(p=0.4, inplace=False)
      )
      (l2): LayerNorm((384,), eps=1e-05, elementwise_affine=True)
      (ff): FeedForward(
        (ln1): Linear(in_features=384, out_features=1536, bias=True)
        (ln2): Linear(in_features=1536, out_features=384, bias=True)
        (dp): Dropout(p=0.4, inplace=False)
      )
    )
    (4): Block(
      (l1): LayerNorm((384,), eps=1e-05, elementwise_affine=True)
      (mha): MaskedMultiHeadAttention(
        (heads): ModuleList(
          (0-47): 48 x MaskedAttention(
            (key): Linear(in_features=384, out_features=8, bias=False)
            (query): Linear(in_features=384, out_features=8, bias=False)
            (value): Linear(in_features=384, out_features=8, bias=False)
            (dp): Dropout(p=0.4, inplace=False)
          )
        )
        (proj): Linear(in_features=384, out_features=384, bias=True)
        (dp): Dropout(p=0.4, inplace=False)
      )
      (l2): LayerNorm((384,), eps=1e-05, elementwise_affine=True)
      (ff): FeedForward(
        (ln1): Linear(in_features=384, out_features=1536, bias=True)
        (ln2): Linear(in_features=1536, out_features=384, bias=True)
        (dp): Dropout(p=0.4, inplace=False)
      )
    )
    (5): Block(
      (l1): LayerNorm((384,), eps=1e-05, elementwise_affine=True)
      (mha): MaskedMultiHeadAttention(
        (heads): ModuleList(
          (0-47): 48 x MaskedAttention(
            (key): Linear(in_features=384, out_features=8, bias=False)
            (query): Linear(in_features=384, out_features=8, bias=False)
            (value): Linear(in_features=384, out_features=8, bias=False)
            (dp): Dropout(p=0.4, inplace=False)
          )
        )
        (proj): Linear(in_features=384, out_features=384, bias=True)
        (dp): Dropout(p=0.4, inplace=False)
      )
      (l2): LayerNorm((384,), eps=1e-05, elementwise_affine=True)
      (ff): FeedForward(
        (ln1): Linear(in_features=384, out_features=1536, bias=True)
        (ln2): Linear(in_features=1536, out_features=384, bias=True)
        (dp): Dropout(p=0.4, inplace=False)
      )
    )
  )
  (l): LayerNorm((384,), eps=1e-05, elementwise_affine=True)
  (lm): Linear(in_features=384, out_features=8001, bias=True)
)
2026-04-30 13:27:29,525 | INFO | total_params: 16842561
2026-04-30 13:33:16,063 | INFO | epoch   0 | train loss 2.5883 | test loss 8.3725 | lr 3.00e-04
2026-04-30 13:33:16,450 | INFO | save new best_test model at epoch 0, test loss 8.3725
2026-04-30 13:33:16,833 | INFO | save new best_train model at epoch 0, train loss 2.5883
2026-04-30 13:39:00,589 | INFO | epoch   1 | train loss 0.3795 | test loss 10.5860 | lr 3.00e-04
…
