…
2026-04-30 23:48:09,578 | INFO | config: {'emb_size': 288, 'head_size': 32, 'n_layer': 5, 'sequence_len': 128, 'learning_rate': 0.00023, 'eval_iters': 5, 'batch_size': 176, 'dropout': 0.26, 'seed': 12046, 'dataset_path': './my_novel_dataset_v2', 'tokenizer_path': './my_novel_tokenizer_v2', 'test_size': 0.1, 'split_seed': 1024, 'weight_decay': 0.11, 'label_smoothing': 0.09, 'grad_clip': 1.0, 'input_corrupt_prob': 0.09, 'sample_stride': 6, 'prefix_trunc_prob': 0.66, 'min_prefix_len': 36, 'lr_scheduler': 'cosine', 'lr_cosine_t_max_epochs': 0, 'lr_cosine_eta_min': 1e-06}
2026-04-30 23:48:09,578 | INFO | run_dir: my_model/train_9_1
2026-04-30 23:48:12,295 | INFO | model:
CharGPT(
  (token_emb): Embedding(9001, 288)
  (pos_emb): Embedding(128, 288)
  (blocks): Sequential(
    (0): Block(
      (l1): LayerNorm((288,), eps=1e-05, elementwise_affine=True)
      (mha): MaskedMultiHeadAttention(
        (heads): ModuleList(
          (0-8): 9 x MaskedAttention(
            (key): Linear(in_features=288, out_features=32, bias=False)
            (query): Linear(in_features=288, out_features=32, bias=False)
            (value): Linear(in_features=288, out_features=32, bias=False)
            (dp): Dropout(p=0.26, inplace=False)
          )
        )
        (proj): Linear(in_features=288, out_features=288, bias=True)
        (dp): Dropout(p=0.26, inplace=False)
      )
      (l2): LayerNorm((288,), eps=1e-05, elementwise_affine=True)
      (ff): FeedForward(
        (ln1): Linear(in_features=288, out_features=1152, bias=True)
        (ln2): Linear(in_features=1152, out_features=288, bias=True)
        (dp): Dropout(p=0.26, inplace=False)
      )
    )
    (1): Block(
      (l1): LayerNorm((288,), eps=1e-05, elementwise_affine=True)
      (mha): MaskedMultiHeadAttention(
        (heads): ModuleList(
          (0-8): 9 x MaskedAttention(
            (key): Linear(in_features=288, out_features=32, bias=False)
            (query): Linear(in_features=288, out_features=32, bias=False)
            (value): Linear(in_features=288, out_features=32, bias=False)
            (dp): Dropout(p=0.26, inplace=False)
          )
        )
        (proj): Linear(in_features=288, out_features=288, bias=True)
        (dp): Dropout(p=0.26, inplace=False)
      )
      (l2): LayerNorm((288,), eps=1e-05, elementwise_affine=True)
      (ff): FeedForward(
        (ln1): Linear(in_features=288, out_features=1152, bias=True)
        (ln2): Linear(in_features=1152, out_features=288, bias=True)
        (dp): Dropout(p=0.26, inplace=False)
      )
    )
    (2): Block(
      (l1): LayerNorm((288,), eps=1e-05, elementwise_affine=True)
      (mha): MaskedMultiHeadAttention(
        (heads): ModuleList(
          (0-8): 9 x MaskedAttention(
            (key): Linear(in_features=288, out_features=32, bias=False)
            (query): Linear(in_features=288, out_features=32, bias=False)
            (value): Linear(in_features=288, out_features=32, bias=False)
            (dp): Dropout(p=0.26, inplace=False)
          )
        )
        (proj): Linear(in_features=288, out_features=288, bias=True)
        (dp): Dropout(p=0.26, inplace=False)
      )
      (l2): LayerNorm((288,), eps=1e-05, elementwise_affine=True)
      (ff): FeedForward(
        (ln1): Linear(in_features=288, out_features=1152, bias=True)
        (ln2): Linear(in_features=1152, out_features=288, bias=True)
        (dp): Dropout(p=0.26, inplace=False)
      )
    )
    (3): Block(
      (l1): LayerNorm((288,), eps=1e-05, elementwise_affine=True)
      (mha): MaskedMultiHeadAttention(
        (heads): ModuleList(
          (0-8): 9 x MaskedAttention(
            (key): Linear(in_features=288, out_features=32, bias=False)
            (query): Linear(in_features=288, out_features=32, bias=False)
            (value): Linear(in_features=288, out_features=32, bias=False)
            (dp): Dropout(p=0.26, inplace=False)
          )
        )
        (proj): Linear(in_features=288, out_features=288, bias=True)
        (dp): Dropout(p=0.26, inplace=False)
      )
      (l2): LayerNorm((288,), eps=1e-05, elementwise_affine=True)
      (ff): FeedForward(
        (ln1): Linear(in_features=288, out_features=1152, bias=True)
        (ln2): Linear(in_features=1152, out_features=288, bias=True)
        (dp): Dropout(p=0.26, inplace=False)
      )
    )
    (4): Block(
      (l1): LayerNorm((288,), eps=1e-05, elementwise_affine=True)
      (mha): MaskedMultiHeadAttention(
        (heads): ModuleList(
          (0-8): 9 x MaskedAttention(
            (key): Linear(in_features=288, out_features=32, bias=False)
            (query): Linear(in_features=288, out_features=32, bias=False)
            (value): Linear(in_features=288, out_features=32, bias=False)
            (dp): Dropout(p=0.26, inplace=False)
          )
        )
        (proj): Linear(in_features=288, out_features=288, bias=True)
        (dp): Dropout(p=0.26, inplace=False)
      )
      (l2): LayerNorm((288,), eps=1e-05, elementwise_affine=True)
      (ff): FeedForward(
        (ln1): Linear(in_features=288, out_features=1152, bias=True)
        (ln2): Linear(in_features=1152, out_features=288, bias=True)
        (dp): Dropout(p=0.26, inplace=False)
      )
    )
  )
  (l): LayerNorm((288,), eps=1e-05, elementwise_affine=True)
  (lm): Linear(in_features=288, out_features=9001, bias=True)
)
2026-04-30 23:48:12,297 | INFO | total_params: 10222057
2026-04-30 23:48:12,297 | INFO | lr_scheduler: cosine (cosine T_max=12, eta_min=1e-06)
2026-04-30 23:51:12,740 | INFO | epoch   0 | train loss 6.7330 | test loss 6.8701 | lr 2.30e-04
2026-04-30 23:51:12,912 | INFO | save new best_test model at epoch 0, test loss 6.8701
2026-04-30 23:51:13,074 | INFO | save new best_train model at epoch 0, train loss 6.7330
…
