…
2026-04-30 16:57:24,463 | INFO | config: {'emb_size': 192, 'head_size': 32, 'n_layer': 4, 'sequence_len': 128, 'learning_rate': 0.0003, 'eval_iters': 3, 'batch_size': 128, 'dropout': 0.2, 'seed': 12046, 'dataset_path': './my_novel_dataset', 'tokenizer_path': './my_novel_tokenizer', 'test_size': 0.1, 'split_seed': 1024, 'weight_decay': 0.1, 'label_smoothing': 0.05, 'grad_clip': 1.0, 'input_corrupt_prob': 0.08, 'sample_stride': 4, 'prefix_trunc_prob': 0.6, 'min_prefix_len': 32, 'lr_scheduler': 'none', 'lr_cosine_t_max_epochs': 0, 'lr_cosine_eta_min': 1e-06}
2026-04-30 16:57:24,465 | INFO | run_dir: my_model/train_2_1
2026-04-30 16:57:25,058 | INFO | model:
CharGPT(
  (token_emb): Embedding(8001, 192)
  (pos_emb): Embedding(128, 192)
  (blocks): Sequential(
    (0): Block(
      (l1): LayerNorm((192,), eps=1e-05, elementwise_affine=True)
      (mha): MaskedMultiHeadAttention(
        (heads): ModuleList(
          (0-5): 6 x MaskedAttention(
            (key): Linear(in_features=192, out_features=32, bias=False)
            (query): Linear(in_features=192, out_features=32, bias=False)
            (value): Linear(in_features=192, out_features=32, bias=False)
            (dp): Dropout(p=0.2, inplace=False)
          )
        )
        (proj): Linear(in_features=192, out_features=192, bias=True)
        (dp): Dropout(p=0.2, inplace=False)
      )
      (l2): LayerNorm((192,), eps=1e-05, elementwise_affine=True)
      (ff): FeedForward(
        (ln1): Linear(in_features=192, out_features=768, bias=True)
        (ln2): Linear(in_features=768, out_features=192, bias=True)
        (dp): Dropout(p=0.2, inplace=False)
      )
    )
    (1): Block(
      (l1): LayerNorm((192,), eps=1e-05, elementwise_affine=True)
      (mha): MaskedMultiHeadAttention(
        (heads): ModuleList(
          (0-5): 6 x MaskedAttention(
            (key): Linear(in_features=192, out_features=32, bias=False)
            (query): Linear(in_features=192, out_features=32, bias=False)
            (value): Linear(in_features=192, out_features=32, bias=False)
            (dp): Dropout(p=0.2, inplace=False)
          )
        )
        (proj): Linear(in_features=192, out_features=192, bias=True)
        (dp): Dropout(p=0.2, inplace=False)
      )
      (l2): LayerNorm((192,), eps=1e-05, elementwise_affine=True)
      (ff): FeedForward(
        (ln1): Linear(in_features=192, out_features=768, bias=True)
        (ln2): Linear(in_features=768, out_features=192, bias=True)
        (dp): Dropout(p=0.2, inplace=False)
      )
    )
    (2): Block(
      (l1): LayerNorm((192,), eps=1e-05, elementwise_affine=True)
      (mha): MaskedMultiHeadAttention(
        (heads): ModuleList(
          (0-5): 6 x MaskedAttention(
            (key): Linear(in_features=192, out_features=32, bias=False)
            (query): Linear(in_features=192, out_features=32, bias=False)
            (value): Linear(in_features=192, out_features=32, bias=False)
            (dp): Dropout(p=0.2, inplace=False)
          )
        )
        (proj): Linear(in_features=192, out_features=192, bias=True)
        (dp): Dropout(p=0.2, inplace=False)
      )
      (l2): LayerNorm((192,), eps=1e-05, elementwise_affine=True)
      (ff): FeedForward(
        (ln1): Linear(in_features=192, out_features=768, bias=True)
        (ln2): Linear(in_features=768, out_features=192, bias=True)
        (dp): Dropout(p=0.2, inplace=False)
      )
    )
    (3): Block(
      (l1): LayerNorm((192,), eps=1e-05, elementwise_affine=True)
      (mha): MaskedMultiHeadAttention(
        (heads): ModuleList(
          (0-5): 6 x MaskedAttention(
            (key): Linear(in_features=192, out_features=32, bias=False)
            (query): Linear(in_features=192, out_features=32, bias=False)
            (value): Linear(in_features=192, out_features=32, bias=False)
            (dp): Dropout(p=0.2, inplace=False)
          )
        )
        (proj): Linear(in_features=192, out_features=192, bias=True)
        (dp): Dropout(p=0.2, inplace=False)
      )
      (l2): LayerNorm((192,), eps=1e-05, elementwise_affine=True)
      (ff): FeedForward(
        (ln1): Linear(in_features=192, out_features=768, bias=True)
        (ln2): Linear(in_features=768, out_features=192, bias=True)
        (dp): Dropout(p=0.2, inplace=False)
      )
    )
  )
  (l): LayerNorm((192,), eps=1e-05, elementwise_affine=True)
  (lm): Linear(in_features=192, out_features=8001, bias=True)
)
2026-04-30 16:57:25,059 | INFO | total_params: 4882497
2026-04-30 16:57:43,137 | INFO | epoch   0 | train loss 7.0916 | test loss 7.2810 | lr 3.00e-04
2026-04-30 16:57:43,209 | INFO | save new best_test model at epoch 0, test loss 7.2810
2026-04-30 16:57:43,277 | INFO | save new best_train model at epoch 0, train loss 7.0916
2026-04-30 16:57:59,750 | INFO | epoch   1 | train loss 6.7855 | test loss 7.2346 | lr 3.00e-04
…
