…
2026-04-30 18:29:21,138 | INFO | config: {'emb_size': 256, 'head_size': 32, 'n_layer': 4, 'sequence_len': 128, 'learning_rate': 0.0003, 'eval_iters': 3, 'batch_size': 160, 'dropout': 0.25, 'seed': 12046, 'dataset_path': './my_novel_dataset_v2', 'tokenizer_path': './my_novel_tokenizer_v2', 'test_size': 0.1, 'split_seed': 1024, 'weight_decay': 0.1, 'label_smoothing': 0.08, 'grad_clip': 1.0, 'input_corrupt_prob': 0.08, 'sample_stride': 4, 'prefix_trunc_prob': 0.6, 'min_prefix_len': 32, 'lr_scheduler': 'none', 'lr_cosine_t_max_epochs': 0, 'lr_cosine_eta_min': 1e-06}
2026-04-30 18:29:21,138 | INFO | run_dir: my_model/train_4_1
2026-04-30 18:29:24,687 | INFO | model:
CharGPT(
  (token_emb): Embedding(9001, 256)
  (pos_emb): Embedding(128, 256)
  (blocks): Sequential(
    (0): Block(
      (l1): LayerNorm((256,), eps=1e-05, elementwise_affine=True)
      (mha): MaskedMultiHeadAttention(
        (heads): ModuleList(
          (0-7): 8 x MaskedAttention(
            (key): Linear(in_features=256, out_features=32, bias=False)
            (query): Linear(in_features=256, out_features=32, bias=False)
            (value): Linear(in_features=256, out_features=32, bias=False)
            (dp): Dropout(p=0.25, inplace=False)
          )
        )
        (proj): Linear(in_features=256, out_features=256, bias=True)
        (dp): Dropout(p=0.25, inplace=False)
      )
      (l2): LayerNorm((256,), eps=1e-05, elementwise_affine=True)
      (ff): FeedForward(
        (ln1): Linear(in_features=256, out_features=1024, bias=True)
        (ln2): Linear(in_features=1024, out_features=256, bias=True)
        (dp): Dropout(p=0.25, inplace=False)
      )
    )
    (1): Block(
      (l1): LayerNorm((256,), eps=1e-05, elementwise_affine=True)
      (mha): MaskedMultiHeadAttention(
        (heads): ModuleList(
          (0-7): 8 x MaskedAttention(
            (key): Linear(in_features=256, out_features=32, bias=False)
            (query): Linear(in_features=256, out_features=32, bias=False)
            (value): Linear(in_features=256, out_features=32, bias=False)
            (dp): Dropout(p=0.25, inplace=False)
          )
        )
        (proj): Linear(in_features=256, out_features=256, bias=True)
        (dp): Dropout(p=0.25, inplace=False)
      )
      (l2): LayerNorm((256,), eps=1e-05, elementwise_affine=True)
      (ff): FeedForward(
        (ln1): Linear(in_features=256, out_features=1024, bias=True)
        (ln2): Linear(in_features=1024, out_features=256, bias=True)
        (dp): Dropout(p=0.25, inplace=False)
      )
    )
    (2): Block(
      (l1): LayerNorm((256,), eps=1e-05, elementwise_affine=True)
      (mha): MaskedMultiHeadAttention(
        (heads): ModuleList(
          (0-7): 8 x MaskedAttention(
            (key): Linear(in_features=256, out_features=32, bias=False)
            (query): Linear(in_features=256, out_features=32, bias=False)
            (value): Linear(in_features=256, out_features=32, bias=False)
            (dp): Dropout(p=0.25, inplace=False)
          )
        )
        (proj): Linear(in_features=256, out_features=256, bias=True)
        (dp): Dropout(p=0.25, inplace=False)
      )
      (l2): LayerNorm((256,), eps=1e-05, elementwise_affine=True)
      (ff): FeedForward(
        (ln1): Linear(in_features=256, out_features=1024, bias=True)
        (ln2): Linear(in_features=1024, out_features=256, bias=True)
        (dp): Dropout(p=0.25, inplace=False)
      )
    )
    (3): Block(
      (l1): LayerNorm((256,), eps=1e-05, elementwise_affine=True)
      (mha): MaskedMultiHeadAttention(
        (heads): ModuleList(
          (0-7): 8 x MaskedAttention(
            (key): Linear(in_features=256, out_features=32, bias=False)
            (query): Linear(in_features=256, out_features=32, bias=False)
            (value): Linear(in_features=256, out_features=32, bias=False)
            (dp): Dropout(p=0.25, inplace=False)
          )
        )
        (proj): Linear(in_features=256, out_features=256, bias=True)
        (dp): Dropout(p=0.25, inplace=False)
      )
      (l2): LayerNorm((256,), eps=1e-05, elementwise_affine=True)
      (ff): FeedForward(
        (ln1): Linear(in_features=256, out_features=1024, bias=True)
        (ln2): Linear(in_features=1024, out_features=256, bias=True)
        (dp): Dropout(p=0.25, inplace=False)
      )
    )
  )
  (l): LayerNorm((256,), eps=1e-05, elementwise_affine=True)
  (lm): Linear(in_features=256, out_features=9001, bias=True)
)
2026-04-30 18:29:24,688 | INFO | total_params: 7806761
2026-04-30 18:32:43,949 | INFO | epoch   0 | train loss 6.0812 | test loss 6.4508 | lr 3.00e-04
2026-04-30 18:32:44,063 | INFO | save new best_test model at epoch 0, test loss 6.4508
2026-04-30 18:32:44,161 | INFO | save new best_train model at epoch 0, train loss 6.0812
2026-04-30 18:35:58,639 | INFO | epoch   1 | train loss 5.2084 | test loss 6.1358 | lr 3.00e-04
…
